…
The number of users: 1404180
Average actions of users: 1.8974162126053729
The number of items: 234839
Average actions of items: 11.345318900688985
The number of inters: 2664312
The sparsity of the dataset: 99.99919203587933%
Remain Fields: ['user_id', 'item_id', 'rating', 'timestamp']
14 Jun 05:33    INFO  [Training]: train_batch_size = [256] train_neg_sample_args: [{'strategy': 'none'}]
14 Jun 05:33    INFO  [Evaluation]: eval_batch_size = [256] eval_args: [{'order': 'TO', 'split': {'LS': 'valid_and_test'}, 'group_by': 'user', 'mode': {'valid': 'full', 'test': 'full'}}]
14 Jun 05:35    INFO  DuoRec(
  (item_embedding): Embedding(234839, 64, padding_idx=0)
  (position_embedding): Embedding(50, 64)
  (trm_encoder): TransformerEncoder(
    (layer): ModuleList(
      (0-1): 2 x TransformerLayer(
        (multi_head_attention): MultiHeadAttention(
          (query): Linear(in_features=64, out_features=64, bias=True)
          (key): Linear(in_features=64, out_features=64, bias=True)
          (value): Linear(in_features=64, out_features=64, bias=True)
          (attn_dropout): Dropout(p=0.5, inplace=False)
          (dense): Linear(in_features=64, out_features=64, bias=True)
          (LayerNorm): LayerNorm((64,), eps=1e-12, elementwise_affine=True)
          (out_dropout): Dropout(p=0.5, inplace=False)
        )
        (feed_forward): FeedForward(
          (dense_1): Linear(in_features=64, out_features=256, bias=True)
          (dense_2): Linear(in_features=256, out_features=64, bias=True)
          (LayerNorm): LayerNorm((64,), eps=1e-12, elementwise_affine=True)
          (dropout): Dropout(p=0.5, inplace=False)
        )
      )
    )
  )
  (LayerNorm): LayerNorm((64,), eps=1e-12, elementwise_affine=True)
  (dropout): Dropout(p=0.5, inplace=False)
  (loss_fct): CrossEntropyLoss()
  (aug_nce_fct): CrossEntropyLoss()
  (sem_aug_nce_fct): CrossEntropyLoss()
)
Trainable parameters: 15132992
Train 0: [0/3734] loss=15.0535
Train 0: [10/3734] loss=14.9111
Train 0: [20/3734] loss=14.6081
Train 0: [30/3734] loss=13.9963
Train 0: [40/3734] loss=12.9133
Train 0: [50/3734] loss=12.5888
…
