…
[1;34mThe sparsity of the dataset[0m: 99.95280792826804%
[1;34mRemain Fields[0m: ['user_id', 'item_id', 'rating', 'timestamp']
Fri 12 Jun 2026 03:11:40 INFO  [1;35m[Training]: [0m[1;36mtrain_batch_size[0m = [1;33m[256][0m[1;36m train_neg_sample_args[0m: [1;33m[{'strategy': 'none'}][0m
Fri 12 Jun 2026 03:11:40 INFO  [1;35m[Evaluation]: [0m[1;36meval_batch_size[0m = [1;33m[256][0m[1;36m eval_args[0m: [1;33m[{'order': 'TO', 'split': {'LS': 'valid_and_test'}, 'group_by': 'user', 'mode': {'valid': 'full', 'test': 'full'}}][0m
Fri 12 Jun 2026 03:11:40 INFO  DuoRec(
  (item_embedding): Embedding(2600, 64, padding_idx=0)
  (position_embedding): Embedding(50, 64)
  (trm_encoder): TransformerEncoder(
    (layer): ModuleList(
      (0-1): 2 x TransformerLayer(
        (multi_head_attention): MultiHeadAttention(
          (query): Linear(in_features=64, out_features=64, bias=True)
          (key): Linear(in_features=64, out_features=64, bias=True)
          (value): Linear(in_features=64, out_features=64, bias=True)
          (attn_dropout): Dropout(p=0.5, inplace=False)
          (dense): Linear(in_features=64, out_features=64, bias=True)
          (LayerNorm): LayerNorm((64,), eps=1e-12, elementwise_affine=True)
          (out_dropout): Dropout(p=0.5, inplace=False)
        )
        (feed_forward): FeedForward(
          (dense_1): Linear(in_features=64, out_features=256, bias=True)
          (dense_2): Linear(in_features=256, out_features=64, bias=True)
          (LayerNorm): LayerNorm((64,), eps=1e-12, elementwise_affine=True)
          (dropout): Dropout(p=0.5, inplace=False)
        )
      )
    )
  )
  (LayerNorm): LayerNorm((64,), eps=1e-12, elementwise_affine=True)
  (dropout): Dropout(p=0.5, inplace=False)
  (loss_fct): CrossEntropyLoss()
  (aug_nce_fct): CrossEntropyLoss()
  (sem_aug_nce_fct): CrossEntropyLoss()
)[1;34m
Trainable parameters[0m: 269696
Fri 12 Jun 2026 03:11:41 INFO  [1;32mepoch 0 training[0m [[1;34mtime[0m: 0.24s, [1;34mtrain loss[0m: 17.2297]
Fri 12 Jun 2026 03:11:41 INFO  [1;32mepoch 0 evaluating[0m [[1;34mtime[0m: 0.00s, [1;34mvalid_score[0m: 0.000000]
…
